pm25_predict/model.npy (npy, 1432 bytes, 1 tensors)

array f8 [163]
-15.42288335936354 0.35959853511861234 -0.05736776344443349 0.16154021132792531 -0.23462843357305335 0.04660845122004409 -0.0630375120484218 -0.23624807283652202
-0.09692522295206542 0.4853277391875647 -4.4938434476332105 -0.25543647716839646 0.09616327333791178 -0.4221977585470095 -0.3413155470803109 -1.601431859275694
-1.2771577431546335 2.133135511286898 3.0113564549705076 0.8454928602421072 0.5664145832089642 0.436766589844721 0.04384209461811416 0.8523247877176298
0.5307505659323931 0.4560204407825471 0.9153526791269987 1.134581512232479 -2.684354856514692 -0.6196310885808615 -4.064182654949923 3.5433589611138934
0.06737909817791829 -4.626184629863213 0.9350093382497218 2.364801369922341 -0.5068674856793699 -0.5828457480740443 -0.2282246407292567 -0.35083958217936606
-0.39058085562583245 -0.16395477651620766 -0.21578170261915602 -0.1574758286256883 -0.37167722312412993 -0.15030906398015662 0.08705538849871178 -0.1373496555561496
-0.2757602433751345 -0.16327432439531214 0.02029026642787297 0.023736811112862632 -0.052934759850030814 -0.3026023760657645 0.2611043957133973 0.29111802486451205
0.1402743763976152 0.3427368983854664 0.25930602048683976 0.08999516562884435 0.10439120147246087 0.13285684131050957 0.40761550975605587 0.023590429431853216
0.026756871364919322 0.02345285570454404 -0.03247639132314682 0.00446704926436235 0.01539186413513821 0.0016394021317304944 0.03572589491258002 0.05765230327836118
0.11568383950054036 0.043991794400671594 0.022132543558620973 -0.024916915049864374 0.07804740545040227 0.003967095395013777 -0.022828242470317943 0.07570105150773257
0.022556242360733 0.015631170320868314 -0.41145036475512564 -0.0007555915156340898 0.0769463004320061 -0.4293055220013318 0.031162982825069237 0.1501588984764718
-0.5934505974271409 0.1055297782267004 0.3391979770697532 0.07329510991360573 0.003435115900074573 -0.06159202297300296 -0.0002154495359666883 -0.026460420187571
0.08482846739500119 -0.004770139833996559 -0.05250131181387805 -0.010539072469822322 -0.0004926213200970421 0.007939295383395476 0.032408359617434115 -0.0687276733924471
-0.042352382159634334 0.013635829839773083 -0.10294975286030228 0.03026589516814391 0.04822052898369325 -0.2775063298543222 0.250790676884466 -0.12602788774358234
-0.13633723099891784 0.024815561620476868 -0.0065765491623614065 -0.009408876131733846 0.16397495205308604 0.09425863130847313 5.39399418969721 2.0602102205323556
2.8210928665925263 -0.37272534150410935 2.048086683719751 2.5571934445875075 0.6201694329924206 -2.186295921473807 -0.16178793995475166 0.006536586615373147
0.007905533257562592 0.005986428026436256 0.007152567922382608 0.00010486630267381395 0.004813076100212145 0.003916253692701852 0.009516652910029814 0.008345388038047555
0.0015514768903501985 -0.003559430396137434 -0.006106889287170477 -0.0040400209378975895 0.0006215491913074472 -0.003544891225858696 -0.0018008523850136927 0.0006726628130563052
0.002888944503234704 -0.4159798862808278 -0.24726675308161158 -0.018853065382684612 -0.09139405943697135 -0.2332900749590374 -0.22872829046444962 0.08715170776147453
0.00878920054444947 -0.10431770408146761 0.26484110575125897 0.205191722168934 -0.014702814948263797 -0.025727219252791464 0.07269243813946444 0.42152705938297075
-0.06635102831021569 -0.21728259264299948 0.19554261735878226
00000000: 61fa ec2a 84d8 2ec0 5b88 0193 a903 d73f
00000010: ae50 adb7 4e5f adbf 1d39 5282 59ad c43f
00000020: 7238 74f4 4d08 cebf 5023 6a1b 10dd a73f
00000030: 394f abf4 3923 b0bf b3b6 4979 603d cebf
00000040: c193 bc66 17d0 b8bf c7bd e913 9c0f df3f
00000050: d0b6 c318 b2f9 11c0 9a32 e93c 1259 d0bf
00000060: 2a09 1002 289e b83f abd9 59bf 4905 dbbf
00000070: d5e1 142a 1dd8 d5bf 08c9 6503 779f f9bf
00000080: c7ea 2af5 3c6f f4bf c74e d759 a910 0140
00000090: 1a93 950d 4217 0840 22b9 f70a 470e eb3f
000000a0: e484 db79 1120 e23f df95 d7da fbf3 db3f
000000b0: 1f58 2595 7872 a63f d527 1aa2 3e46 eb3f
000000c0: 7b6b 609c e8fb e03f a2fc dd5b 702f dd3f
000000d0: 9101 a5b3 914a ed3f 9ef4 9af1 3e27 f23f
000000e0: 0ab7 fc09 8f79 05c0 0d45 a193 04d4 e3bf
000000f0: e7eb 0f19 b941 10c0 1bc8 3f95 cc58 0c40
00000100: 8eae 1baf c13f b13f db14 2a8b 3681 12c0
00000110: ca96 27b4 98eb ed3f d3d1 0afb 1ceb 0240
00000120: adc1 4c29 4238 e0bf d0e6 5220 aca6 e2bf
00000130: ae68 090c 7736 cdbf 5692 e6dc 2774 d6bf
00000140: 52d3 56d8 46ff d8bf 2e7e 9459 78fc c4bf
00000150: 5288 e91d bc9e cbbf 6fcd edfe 2a28 c4bf
00000160: 711e 7f43 8fc9 d7bf 8b27 0bd1 533d c3bf
00000170: 02e4 8a0e 4349 b63f eb81 5d6b ac94 c1bf
00000180: 3453 b54a 0ea6 d1bf 4af5 c64d 2ce6 c4bf
00000190: 337a f0ba f8c6 943f 00a9 c36d 764e 983f
000001a0: 2f47 c1cc 431a abbf 0f3d 395b d65d d3bf
000001b0: 9a93 1b36 efb5 d03f ad6d 047f ada1 d23f
000001c0: 441a 8cc1 82f4 c13f e8ac 6cbe 66ef d53f
000001d0: 8766 6947 7898 d03f 988a 2c55 ec09 b73f
000001e0: 527a 50bc 61b9 ba3f 803f 3df6 7301 c13f
000001f0: 00a8 ef5c 5f16 da3f 0835 a2eb 1628 983f
00000200: bd8a d23d 2766 9b3f a3cb fe80 0604 983f
00000210: ce01 40dd bea0 a0bf ee3b 0068 0a4c 723f
00000220: dfdc ad08 c585 8f3f 680f 9ca2 26dc 5a3f
00000230: 9c2b 8a1c aa4a a23f c840 3d4a 9a84 ad3f
00000240: dd9d 54c3 749d bd3f 028a 7cac 1786 a63f
00000250: acd9 0bdb e9a9 963f e087 06dd d183 99bf
00000260: 1b77 f22d eafa b33f 4207 b50f cd3f 703f
00000270: ce37 576b 4960 97bf 329f 7fe4 2461 b33f
00000280: ef3c 0acd fb18 973f d32a 4e15 9e01 903f
00000290: fa3b 23e9 3355 dabf f6ef a46c 5cc2 48bf
000002a0: 0f56 e7b3 c0b2 b33f 393a 3fde bd79 dbbf
000002b0: bf63 5160 30e9 9f3f 5475 1423 6838 c33f
000002c0: 2cb8 771b 8cfd e2bf 30e1 3ce2 ff03 bb3f
000002d0: 9a92 986e 6bb5 d53f 2521 09e4 77c3 b23f
000002e0: a07c 5cce f523 6c3f 6520 ba58 fd88 afbf
000002f0: 2917 fd6b 493d 2cbf e04a 60bd 7018 9bbf
00000300: 9a38 3b85 51b7 b53f 108c 59a9 da89 73bf
00000310: 6db4 79b2 73e1 aabf 3b59 b45c 8295 85bf
00000320: 68be c43a 6824 40bf 1522 3330 7a42 803f
00000330: aa07 5919 d497 a03f 9ffc 8c05 2398 b1bf
00000340: c10f 9120 36af a5bf c6a4 b919 1aed 8b3f
00000350: 6091 aa3d ea5a babf dab1 b9d7 05fe 9e3f
00000360: 2429 f675 5cb0 a83f 3e11 cae8 a9c2 d1bf
00000370: 2e12 d756 f40c d03f 010f 1f8c ae21 c0bf
00000380: dd0b 2f96 7f73 c1bf 4d06 5e26 4069 993f
00000390: 9482 2af9 02f0 7abf da29 39fa f544 83bf
000003a0: aa30 3798 21fd c43f c9ea d56a 5521 b83f
000003b0: 1041 7e36 7393 1540 4292 007f 4f7b 0040
000003c0: 49f3 0723 9991 0640 1fa3 0964 bbda d7bf
000003d0: 6d98 6f45 7b62 0040 3764 30d6 2175 0440
000003e0: 4acd 1591 6dd8 e33f 90dd 50b7 887d 01c0
000003f0: 5e16 7f9b 77b5 c4bf 7a15 d99b 1bc6 7a3f
00000400: faad 63b6 c630 803f 9e92 7e89 3985 783f
00000410: 7ae0 f1d4 024c 7d3f a660 9b5c 757d 1b3f
00000420: 42dd 1847 e0b6 733f 6424 8758 7d0a 703f
00000430: 4fb0 2088 777d 833f 9516 9105 6317 813f
00000440: 5c9c 4aa0 5d6b 593f 88ff 99a4 aa28 6dbf
00000450: d68d 4c9c 8903 79bf 96d4 dadc 448c 70bf
00000460: 38e5 89b9 ee5d 443f 540c 41fc 2c0a 6dbf
00000470: bec3 4e86 5281 5dbf ed92 4364 b40a 463f
00000480: b6cb 2945 8eaa 673f 56ad d719 6a9f dabf
00000490: 13d3 efdc 6fa6 cfbf 81ee fdcc 374e 93bf
000004a0: d299 54e0 9965 b7bf 1f19 37fd 72dc cdbf
000004b0: 8f7e 9bf7 f746 cdbf f146 a006 934f b63f
000004c0: 99d1 2b87 1200 823f 3378 6ca7 90b4 babf
000004d0: 00a4 f51b 28f3 d03f 0c10 10ec b843 ca3f
000004e0: 193d e56a 821c 8ebf ac25 3b75 3c58 9abf
000004f0: 8eba 79bc f89b b23f 4073 9ba1 4cfa da3f
00000500: 0afa a588 61fc b0bf 9e25 b27e eacf cbbf
00000510: fadd 435d 8a07 c93f
